…
Epoch 25/25
1875/1875 [==============================] - 4s 2ms/step - loss: 9.7671e-05 - accuracy: 1.0000 - val_loss: 0.1293 - val_accuracy: 0.9832
Test loss: 0.12933997809886932
Test accuracy: 0.9832000136375427
------------------------------------------------------------------------------------------------------------------

dense = 256, batch = 64
Model: "sequential_2"
_________________________________________________________________
 Layer (type)                Output Shape              Param #   
=================================================================
 dense_4 (Dense)             (None, 256)               200960    
                                                                 
 dense_5 (Dense)             (None, 10)                2570      
                                                                 
 input_4 (InputLayer)        multiple                  0         
                                                                 
 dense_6 (Dense)             (None, 256)               2816      
                                                                 
 dense_7 (Dense)             (None, 10)                2570      
                                                                 
 input_5 (InputLayer)        multiple                  0         
                                                                 
 dense_8 (Dense)             (None, 256)               2816      
                                                                 
 dense_9 (Dense)             (None, 10)                2570      
                                                                 
=================================================================
Total params: 214302 (837.12 KB)
Trainable params: 214302 (837.12 KB)
Non-trainable params: 0 (0.00 Byte)
_________________________________________________________________
Epoch 1/25
938/938 [==============================] - 3s 3ms/step - loss: 0.2293 - accuracy: 0.9868 - val_loss: 0.1148 - val_accuracy: 0.9832
…
Epoch 25/25
938/938 [==============================] - 3s 3ms/step - loss: 2.1209e-04 - accuracy: 1.0000 - val_loss: 0.1634 - val_accuracy: 0.9832
Test loss: 0.16339991986751556
Test accuracy: 0.9832000136375427
------------------------------------------------------------------------------------------------------------------

dense = 256, batch = 128
Model: "sequential_2"
_________________________________________________________________
 Layer (type)                Output Shape              Param #   
=================================================================
 dense_4 (Dense)             (None, 256)               200960    
                                                                 
 dense_5 (Dense)             (None, 10)                2570      
                                                                 
 input_4 (InputLayer)        multiple                  0         
                                                                 
 dense_6 (Dense)             (None, 256)               2816      
                                                                 
 dense_7 (Dense)             (None, 10)                2570      
                                                                 
 input_5 (InputLayer)        multiple                  0         
                                                                 
 dense_8 (Dense)             (None, 256)               2816      
                                                                 
 dense_9 (Dense)             (None, 10)                2570      
                                                                 
 input_6 (InputLayer)        multiple                  0         
                                                                 
 dense_10 (Dense)            (None, 256)               2816      
                                                                 
 dense_11 (Dense)            (None, 10)                2570      
                                                                 
=================================================================
Total params: 219688 (858.16 KB)
Trainable params: 219688 (858.16 KB)
Non-trainable params: 0 (0.00 Byte)
_________________________________________________________________
Epoch 1/25
469/469 [==============================] - 3s 4ms/step - loss: 0.4360 - accuracy: 0.9687 - val_loss: 0.1223 - val_accuracy: 0.9832
…
Epoch 25/25
469/469 [==============================] - 1s 3ms/step - loss: 4.6270e-04 - accuracy: 1.0000 - val_loss: 0.1632 - val_accuracy: 0.9832
Test loss: 0.16316501796245575
Test accuracy: 0.9832000136375427
------------------------------------------------------------------------------------------------------------------

dense = 512, batch = 16
Model: "sequential_2"
_________________________________________________________________
 Layer (type)                Output Shape              Param #   
=================================================================
 dense_4 (Dense)             (None, 256)               200960    
                                                                 
 dense_5 (Dense)             (None, 10)                2570      
                                                                 
 input_4 (InputLayer)        multiple                  0         
                                                                 
 dense_6 (Dense)             (None, 256)               2816      
                                                                 
 dense_7 (Dense)             (None, 10)                2570      
                                                                 
 input_5 (InputLayer)        multiple                  0         
                                                                 
 dense_8 (Dense)             (None, 256)               2816      
                                                                 
 dense_9 (Dense)             (None, 10)                2570      
                                                                 
 input_6 (InputLayer)        multiple                  0         
                                                                 
 dense_10 (Dense)            (None, 256)               2816      
                                                                 
 dense_11 (Dense)            (None, 10)                2570      
                                                                 
 input_7 (InputLayer)        multiple                  0         
                                                                 
 dense_12 (Dense)            (None, 512)               5632      
                                                                 
 dense_13 (Dense)            (None, 10)                5130      
                                                                 
=================================================================
Total params: 230450 (900.20 KB)
Trainable params: 230450 (900.20 KB)
Non-trainable params: 0 (0.00 Byte)
_________________________________________________________________
Epoch 1/25
3750/3750 [==============================] - 9s 2ms/step - loss: 0.0606 - accuracy: 0.9964 - val_loss: 0.1450 - val_accuracy: 0.9832
…
Epoch 25/25
3750/3750 [==============================] - 9s 2ms/step - loss: 4.5403e-05 - accuracy: 1.0000 - val_loss: 0.2039 - val_accuracy: 0.9832
Test loss: 0.20387041568756104
Test accuracy: 0.9832000136375427
------------------------------------------------------------------------------------------------------------------

dense = 512, batch = 32
Model: "sequential_2"
_________________________________________________________________
 Layer (type)                Output Shape              Param #   
=================================================================
 dense_4 (Dense)             (None, 256)               200960    
                                                                 
 dense_5 (Dense)             (None, 10)                2570      
                                                                 
 input_4 (InputLayer)        multiple                  0         
                                                                 
 dense_6 (Dense)             (None, 256)               2816      
                                                                 
 dense_7 (Dense)             (None, 10)                2570      
                                                                 
 input_5 (InputLayer)        multiple                  0         
                                                                 
 dense_8 (Dense)             (None, 256)               2816      
                                                                 
 dense_9 (Dense)             (None, 10)                2570      
                                                                 
 input_6 (InputLayer)        multiple                  0         
                                                                 
 dense_10 (Dense)            (None, 256)               2816      
                                                                 
 dense_11 (Dense)            (None, 10)                2570      
                                                                 
 input_7 (InputLayer)        multiple                  0         
                                                                 
 dense_12 (Dense)            (None, 512)               5632      
                                                                 
 dense_13 (Dense)            (None, 10)                5130      
                                                                 
 input_8 (InputLayer)        multiple                  0         
                                                                 
 dense_14 (Dense)            (None, 512)               5632      
                                                                 
 dense_15 (Dense)            (None, 10)                5130      
                                                                 
=================================================================
Total params: 241212 (942.23 KB)
Trainable params: 241212 (942.23 KB)
Non-trainable params: 0 (0.00 Byte)
_________________________________________________________________
Epoch 1/25
1875/1875 [==============================] - 6s 3ms/step - loss: 0.1140 - accuracy: 0.9956 - val_loss: 0.1344 - val_accuracy: 0.9832
…
Epoch 25/25
1875/1875 [==============================] - 5s 3ms/step - loss: 9.7207e-05 - accuracy: 1.0000 - val_loss: 0.1930 - val_accuracy: 0.9832
Test loss: 0.19298705458641052
Test accuracy: 0.9832000136375427
------------------------------------------------------------------------------------------------------------------

dense = 512, batch = 64
Model: "sequential_2"
_________________________________________________________________
 Layer (type)                Output Shape              Param #   
=================================================================
 dense_4 (Dense)             (None, 256)               200960    
                                                                 
 dense_5 (Dense)             (None, 10)                2570      
                                                                 
 input_4 (InputLayer)        multiple                  0         
                                                                 
 dense_6 (Dense)             (None, 256)               2816      
                                                                 
 dense_7 (Dense)             (None, 10)                2570      
                                                                 
 input_5 (InputLayer)        multiple                  0         
                                                                 
 dense_8 (Dense)             (None, 256)               2816      
                                                                 
 dense_9 (Dense)             (None, 10)                2570      
                                                                 
 input_6 (InputLayer)        multiple                  0         
                                                                 
 dense_10 (Dense)            (None, 256)               2816      
                                                                 
 dense_11 (Dense)            (None, 10)                2570      
                                                                 
 input_7 (InputLayer)        multiple                  0         
                                                                 
 dense_12 (Dense)            (None, 512)               5632      
                                                                 
 dense_13 (Dense)            (None, 10)                5130      
                                                                 
 input_8 (InputLayer)        multiple                  0         
                                                                 
 dense_14 (Dense)            (None, 512)               5632      
                                                                 
 dense_15 (Dense)            (None, 10)                5130      
                                                                 
 input_9 (InputLayer)        multiple                  0         
                                                                 
 dense_16 (Dense)            (None, 512)               5632      
                                                                 
 dense_17 (Dense)            (None, 10)                5130      
                                                                 
=================================================================
Total params: 251974 (984.27 KB)
Trainable params: 251974 (984.27 KB)
Non-trainable params: 0 (0.00 Byte)
_________________________________________________________________
Epoch 1/25
938/938 [==============================] - 4s 4ms/step - loss: 0.2212 - accuracy: 0.9879 - val_loss: 0.1254 - val_accuracy: 0.9832
…
Epoch 25/25
938/938 [==============================] - 3s 4ms/step - loss: 2.0975e-04 - accuracy: 1.0000 - val_loss: 0.1804 - val_accuracy: 0.9832
Test loss: 0.18035657703876495
Test accuracy: 0.9832000136375427
------------------------------------------------------------------------------------------------------------------

dense = 512, batch = 128
Model: "sequential_2"
_________________________________________________________________
 Layer (type)                Output Shape              Param #   
=================================================================
 dense_4 (Dense)             (None, 256)               200960    
                                                                 
 dense_5 (Dense)             (None, 10)                2570      
                                                                 
 input_4 (InputLayer)        multiple                  0         
                                                                 
 dense_6 (Dense)             (None, 256)               2816      
                                                                 
 dense_7 (Dense)             (None, 10)                2570      
                                                                 
 input_5 (InputLayer)        multiple                  0         
                                                                 
 dense_8 (Dense)             (None, 256)               2816      
                                                                 
 dense_9 (Dense)             (None, 10)                2570      
                                                                 
 input_6 (InputLayer)        multiple                  0         
                                                                 
 dense_10 (Dense)            (None, 256)               2816      
                                                                 
 dense_11 (Dense)            (None, 10)                2570      
                                                                 
 input_7 (InputLayer)        multiple                  0         
                                                                 
 dense_12 (Dense)            (None, 512)               5632      
                                                                 
 dense_13 (Dense)            (None, 10)                5130      
                                                                 
 input_8 (InputLayer)        multiple                  0         
                                                                 
 dense_14 (Dense)            (None, 512)               5632      
                                                                 
 dense_15 (Dense)            (None, 10)                5130      
                                                                 
 input_9 (InputLayer)        multiple                  0         
                                                                 
 dense_16 (Dense)            (None, 512)               5632      
                                                                 
 dense_17 (Dense)            (None, 10)                5130      
                                                                 
 input_10 (InputLayer)       multiple                  0         
                                                                 
 dense_18 (Dense)            (None, 512)               5632      
                                                                 
 dense_19 (Dense)            (None, 10)                5130      
                                                                 
=================================================================
Total params: 262736 (1.00 MB)
Trainable params: 262736 (1.00 MB)
Non-trainable params: 0 (0.00 Byte)
_________________________________________________________________
Epoch 1/25
469/469 [==============================] - 3s 5ms/step - loss: 0.4155 - accuracy: 0.9854 - val_loss: 0.1241 - val_accuracy: 0.9832
…
Epoch 25/25
469/469 [==============================] - 2s 5ms/step - loss: 4.6145e-04 - accuracy: 1.0000 - val_loss: 0.1674 - val_accuracy: 0.9832
Test loss: 0.16743026673793793
Test accuracy: 0.9832000136375427
------------------------------------------------------------------------------------------------------------------

dense = 1024, batch = 16
Model: "sequential_2"
_________________________________________________________________
 Layer (type)                Output Shape              Param #   
=================================================================
 dense_4 (Dense)             (None, 256)               200960    
                                                                 
 dense_5 (Dense)             (None, 10)                2570      
                                                                 
 input_4 (InputLayer)        multiple                  0         
                                                                 
 dense_6 (Dense)             (None, 256)               2816      
                                                                 
 dense_7 (Dense)             (None, 10)                2570      
                                                                 
 input_5 (InputLayer)        multiple                  0         
                                                                 
 dense_8 (Dense)             (None, 256)               2816      
                                                                 
 dense_9 (Dense)             (None, 10)                2570      
                                                                 
 input_6 (InputLayer)        multiple                  0         
                                                                 
 dense_10 (Dense)            (None, 256)               2816      
                                                                 
 dense_11 (Dense)            (None, 10)                2570      
                                                                 
 input_7 (InputLayer)        multiple                  0         
                                                                 
 dense_12 (Dense)            (None, 512)               5632      
                                                                 
 dense_13 (Dense)            (None, 10)                5130      
                                                                 
 input_8 (InputLayer)        multiple                  0         
                                                                 
 dense_14 (Dense)            (None, 512)               5632      
                                                                 
 dense_15 (Dense)            (None, 10)                5130      
                                                                 
 input_9 (InputLayer)        multiple                  0         
                                                                 
 dense_16 (Dense)            (None, 512)               5632      
                                                                 
 dense_17 (Dense)            (None, 10)                5130      
                                                                 
 input_10 (InputLayer)       multiple                  0         
                                                                 
 dense_18 (Dense)            (None, 512)               5632      
                                                                 
 dense_19 (Dense)            (None, 10)                5130      
                                                                 
 input_11 (InputLayer)       multiple                  0         
                                                                 
 dense_20 (Dense)            (None, 1024)              11264     
                                                                 
 dense_21 (Dense)            (None, 10)                10250     
                                                                 
=================================================================
Total params: 284250 (1.08 MB)
Trainable params: 284250 (1.08 MB)
Non-trainable params: 0 (0.00 Byte)
_________________________________________________________________
Epoch 1/25
3750/3750 [==============================] - 13s 3ms/step - loss: 0.0585 - accuracy: 0.9976 - val_loss: 0.1456 - val_accuracy: 0.9832
…
Epoch 25/25
3750/3750 [==============================] - 12s 3ms/step - loss: 4.5194e-05 - accuracy: 1.0000 - val_loss: 0.2051 - val_accuracy: 0.9832
Test loss: 0.20505040884017944
Test accuracy: 0.9832000136375427
------------------------------------------------------------------------------------------------------------------

dense = 1024, batch = 32
Model: "sequential_2"
_________________________________________________________________
 Layer (type)                Output Shape              Param #   
=================================================================
 dense_4 (Dense)             (None, 256)               200960    
                                                                 
 dense_5 (Dense)             (None, 10)                2570      
                                                                 
 input_4 (InputLayer)        multiple                  0         
                                                                 
 dense_6 (Dense)             (None, 256)               2816      
                                                                 
 dense_7 (Dense)             (None, 10)                2570      
                                                                 
 input_5 (InputLayer)        multiple                  0         
                                                                 
 dense_8 (Dense)             (None, 256)               2816      
                                                                 
 dense_9 (Dense)             (None, 10)                2570      
                                                                 
 input_6 (InputLayer)        multiple                  0         
                                                                 
 dense_10 (Dense)            (None, 256)               2816      
                                                                 
 dense_11 (Dense)            (None, 10)                2570      
                                                                 
 input_7 (InputLayer)        multiple                  0         
                                                                 
 dense_12 (Dense)            (None, 512)               5632      
                                                                 
 dense_13 (Dense)            (None, 10)                5130      
                                                                 
 input_8 (InputLayer)        multiple                  0         
                                                                 
 dense_14 (Dense)            (None, 512)               5632      
                                                                 
 dense_15 (Dense)            (None, 10)                5130      
                                                                 
 input_9 (InputLayer)        multiple                  0         
                                                                 
 dense_16 (Dense)            (None, 512)               5632      
                                                                 
 dense_17 (Dense)            (None, 10)                5130      
                                                                 
 input_10 (InputLayer)       multiple                  0         
                                                                 
 dense_18 (Dense)            (None, 512)               5632      
                                                                 
 dense_19 (Dense)            (None, 10)                5130      
                                                                 
 input_11 (InputLayer)       multiple                  0         
                                                                 
 dense_20 (Dense)            (None, 1024)              11264     
                                                                 
 dense_21 (Dense)            (None, 10)                10250     
                                                                 
 input_12 (InputLayer)       multiple                  0         
                                                                 
 dense_22 (Dense)            (None, 1024)              11264     
                                                                 
 dense_23 (Dense)            (None, 10)                10250     
                                                                 
=================================================================
Total params: 305764 (1.17 MB)
Trainable params: 305764 (1.17 MB)
Non-trainable params: 0 (0.00 Byte)
_________________________________________________________________
Epoch 1/25
1875/1875 [==============================] - 9s 4ms/step - loss: 0.1165 - accuracy: 0.9947 - val_loss: 0.1339 - val_accuracy: 0.9832
…
Epoch 25/25
1875/1875 [==============================] - 7s 4ms/step - loss: 9.7000e-05 - accuracy: 1.0000 - val_loss: 0.1923 - val_accuracy: 0.9832
Test loss: 0.19234973192214966
Test accuracy: 0.9832000136375427
------------------------------------------------------------------------------------------------------------------

dense = 1024, batch = 64
Model: "sequential_2"
_________________________________________________________________
 Layer (type)                Output Shape              Param #   
=================================================================
 dense_4 (Dense)             (None, 256)               200960    
                                                                 
 dense_5 (Dense)             (None, 10)                2570      
                                                                 
 input_4 (InputLayer)        multiple                  0         
                                                                 
 dense_6 (Dense)             (None, 256)               2816      
                                                                 
 dense_7 (Dense)             (None, 10)                2570      
                                                                 
 input_5 (InputLayer)        multiple                  0         
                                                                 
 dense_8 (Dense)             (None, 256)               2816      
                                                                 
 dense_9 (Dense)             (None, 10)                2570      
                                                                 
 input_6 (InputLayer)        multiple                  0         
                                                                 
 dense_10 (Dense)            (None, 256)               2816      
                                                                 
 dense_11 (Dense)            (None, 10)                2570      
                                                                 
 input_7 (InputLayer)        multiple                  0         
                                                                 
 dense_12 (Dense)            (None, 512)               5632      
                                                                 
 dense_13 (Dense)            (None, 10)                5130      
                                                                 
 input_8 (InputLayer)        multiple                  0         
                                                                 
 dense_14 (Dense)            (None, 512)               5632      
                                                                 
 dense_15 (Dense)            (None, 10)                5130      
                                                                 
 input_9 (InputLayer)        multiple                  0         
                                                                 
 dense_16 (Dense)            (None, 512)               5632      
                                                                 
 dense_17 (Dense)            (None, 10)                5130      
                                                                 
 input_10 (InputLayer)       multiple                  0         
                                                                 
 dense_18 (Dense)            (None, 512)               5632      
                                                                 
 dense_19 (Dense)            (None, 10)                5130      
                                                                 
 input_11 (InputLayer)       multiple                  0         
                                                                 
 dense_20 (Dense)            (None, 1024)              11264     
                                                                 
 dense_21 (Dense)            (None, 10)                10250     
                                                                 
 input_12 (InputLayer)       multiple                  0         
                                                                 
 dense_22 (Dense)            (None, 1024)              11264     
                                                                 
 dense_23 (Dense)            (None, 10)                10250     
                                                                 
 input_13 (InputLayer)       multiple                  0         
                                                                 
 dense_24 (Dense)            (None, 1024)              11264     
                                                                 
 dense_25 (Dense)            (None, 10)                10250     
                                                                 
=================================================================
Total params: 327278 (1.25 MB)
Trainable params: 327278 (1.25 MB)
Non-trainable params: 0 (0.00 Byte)
_________________________________________________________________
Epoch 1/25
938/938 [==============================] - 6s 5ms/step - loss: 0.2298 - accuracy: 0.9887 - val_loss: 0.1250 - val_accuracy: 0.9832
…
Epoch 25/25
938/938 [==============================] - 5s 5ms/step - loss: 2.1015e-04 - accuracy: 1.0000 - val_loss: 0.1801 - val_accuracy: 0.9832
Test loss: 0.18009738624095917
Test accuracy: 0.9832000136375427
------------------------------------------------------------------------------------------------------------------

dense = 1024, batch = 128
Model: "sequential_2"
_________________________________________________________________
 Layer (type)                Output Shape              Param #   
=================================================================
 dense_4 (Dense)             (None, 256)               200960    
                                                                 
 dense_5 (Dense)             (None, 10)                2570      
                                                                 
 input_4 (InputLayer)        multiple                  0         
                                                                 
 dense_6 (Dense)             (None, 256)               2816      
                                                                 
 dense_7 (Dense)             (None, 10)                2570      
                                                                 
 input_5 (InputLayer)        multiple                  0         
                                                                 
 dense_8 (Dense)             (None, 256)               2816      
                                                                 
 dense_9 (Dense)             (None, 10)                2570      
                                                                 
 input_6 (InputLayer)        multiple                  0         
                                                                 
 dense_10 (Dense)            (None, 256)               2816      
                                                                 
 dense_11 (Dense)            (None, 10)                2570      
                                                                 
 input_7 (InputLayer)        multiple                  0         
                                                                 
 dense_12 (Dense)            (None, 512)               5632      
                                                                 
 dense_13 (Dense)            (None, 10)                5130      
                                                                 
 input_8 (InputLayer)        multiple                  0         
                                                                 
 dense_14 (Dense)            (None, 512)               5632      
                                                                 
 dense_15 (Dense)            (None, 10)                5130      
                                                                 
 input_9 (InputLayer)        multiple                  0         
                                                                 
 dense_16 (Dense)            (None, 512)               5632      
                                                                 
 dense_17 (Dense)            (None, 10)                5130      
                                                                 
 input_10 (InputLayer)       multiple                  0         
                                                                 
 dense_18 (Dense)            (None, 512)               5632      
                                                                 
 dense_19 (Dense)            (None, 10)                5130      
                                                                 
 input_11 (InputLayer)       multiple                  0         
                                                                 
 dense_20 (Dense)            (None, 1024)              11264     
                                                                 
 dense_21 (Dense)            (None, 10)                10250     
                                                                 
 input_12 (InputLayer)       multiple                  0         
                                                                 
 dense_22 (Dense)            (None, 1024)              11264     
                                                                 
 dense_23 (Dense)            (None, 10)                10250     
                                                                 
 input_13 (InputLayer)       multiple                  0         
                                                                 
 dense_24 (Dense)            (None, 1024)              11264     
                                                                 
 dense_25 (Dense)            (None, 10)                10250     
                                                                 
 input_14 (InputLayer)       multiple                  0         
                                                                 
 dense_26 (Dense)            (None, 1024)              11264     
                                                                 
 dense_27 (Dense)            (None, 10)                10250     
                                                                 
=================================================================
Total params: 348792 (1.33 MB)
Trainable params: 348792 (1.33 MB)
Non-trainable params: 0 (0.00 Byte)
_________________________________________________________________
Epoch 1/25
469/469 [==============================] - 5s 7ms/step - loss: 0.4342 - accuracy: 0.9795 - val_loss: 0.1241 - val_accuracy: 0.9832
…
