…
1875/1875 [==============================] - 4s 2ms/step - loss: 1.0738e-04 - accuracy: 1.0000 - val_loss: 0.1332 - val_accuracy: 0.9837
Epoch 24/25
1875/1875 [==============================] - 3s 2ms/step - loss: 1.0232e-04 - accuracy: 1.0000 - val_loss: 0.1337 - val_accuracy: 0.9837
Epoch 25/25
1875/1875 [==============================] - 4s 2ms/step - loss: 9.7698e-05 - accuracy: 1.0000 - val_loss: 0.1342 - val_accuracy: 0.9837
dense = 256, batch = 64
Model: "sequential_1"
_________________________________________________________________
 Layer (type)                Output Shape              Param #   
=================================================================
 dense_2 (Dense)             (None, 256)               200960    
                                                                 
 dense_3 (Dense)             (None, 10)                2570      
                                                                 
 input_3 (InputLayer)        multiple                  0         
                                                                 
 dense_4 (Dense)             (None, 256)               2816      
                                                                 
 dense_5 (Dense)             (None, 10)                2570      
                                                                 
 input_4 (InputLayer)        multiple                  0         
                                                                 
 dense_6 (Dense)             (None, 256)               2816      
                                                                 
 dense_7 (Dense)             (None, 10)                2570      
                                                                 
=================================================================
Total params: 214302 (837.12 KB)
Trainable params: 214302 (837.12 KB)
Non-trainable params: 0 (0.00 Byte)
_________________________________________________________________
Epoch 1/25
938/938 [==============================] - 3s 3ms/step - loss: 0.2326 - accuracy: 0.9829 - val_loss: 0.1155 - val_accuracy: 0.9837
…
938/938 [==============================] - 2s 3ms/step - loss: 2.3330e-04 - accuracy: 1.0000 - val_loss: 0.1628 - val_accuracy: 0.9837
Epoch 24/25
938/938 [==============================] - 2s 3ms/step - loss: 2.2218e-04 - accuracy: 1.0000 - val_loss: 0.1635 - val_accuracy: 0.9837
Epoch 25/25
938/938 [==============================] - 2s 3ms/step - loss: 2.1203e-04 - accuracy: 1.0000 - val_loss: 0.1642 - val_accuracy: 0.9837
dense = 256, batch = 128
Model: "sequential_1"
_________________________________________________________________
 Layer (type)                Output Shape              Param #   
=================================================================
 dense_2 (Dense)             (None, 256)               200960    
                                                                 
 dense_3 (Dense)             (None, 10)                2570      
                                                                 
 input_3 (InputLayer)        multiple                  0         
                                                                 
 dense_4 (Dense)             (None, 256)               2816      
                                                                 
 dense_5 (Dense)             (None, 10)                2570      
                                                                 
 input_4 (InputLayer)        multiple                  0         
                                                                 
 dense_6 (Dense)             (None, 256)               2816      
                                                                 
 dense_7 (Dense)             (None, 10)                2570      
                                                                 
 input_5 (InputLayer)        multiple                  0         
                                                                 
 dense_8 (Dense)             (None, 256)               2816      
                                                                 
 dense_9 (Dense)             (None, 10)                2570      
                                                                 
=================================================================
Total params: 219688 (858.16 KB)
Trainable params: 219688 (858.16 KB)
Non-trainable params: 0 (0.00 Byte)
_________________________________________________________________
Epoch 1/25
469/469 [==============================] - 2s 3ms/step - loss: 0.4324 - accuracy: 0.9740 - val_loss: 0.1207 - val_accuracy: 0.9837
…
469/469 [==============================] - 1s 3ms/step - loss: 5.0831e-04 - accuracy: 1.0000 - val_loss: 0.1595 - val_accuracy: 0.9837
Epoch 24/25
469/469 [==============================] - 1s 3ms/step - loss: 4.8376e-04 - accuracy: 1.0000 - val_loss: 0.1603 - val_accuracy: 0.9837
Epoch 25/25
469/469 [==============================] - 1s 3ms/step - loss: 4.6136e-04 - accuracy: 1.0000 - val_loss: 0.1610 - val_accuracy: 0.9837
dense = 512, batch = 16
Model: "sequential_1"
_________________________________________________________________
 Layer (type)                Output Shape              Param #   
=================================================================
 dense_2 (Dense)             (None, 256)               200960    
                                                                 
 dense_3 (Dense)             (None, 10)                2570      
                                                                 
 input_3 (InputLayer)        multiple                  0         
                                                                 
 dense_4 (Dense)             (None, 256)               2816      
                                                                 
 dense_5 (Dense)             (None, 10)                2570      
                                                                 
 input_4 (InputLayer)        multiple                  0         
                                                                 
 dense_6 (Dense)             (None, 256)               2816      
                                                                 
 dense_7 (Dense)             (None, 10)                2570      
                                                                 
 input_5 (InputLayer)        multiple                  0         
                                                                 
 dense_8 (Dense)             (None, 256)               2816      
                                                                 
 dense_9 (Dense)             (None, 10)                2570      
                                                                 
 input_6 (InputLayer)        multiple                  0         
                                                                 
 dense_10 (Dense)            (None, 512)               5632      
                                                                 
 dense_11 (Dense)            (None, 10)                5130      
                                                                 
=================================================================
Total params: 230450 (900.20 KB)
Trainable params: 230450 (900.20 KB)
Non-trainable params: 0 (0.00 Byte)
_________________________________________________________________
Epoch 1/25
3750/3750 [==============================] - 9s 2ms/step - loss: 0.0585 - accuracy: 0.9978 - val_loss: 0.1425 - val_accuracy: 0.9837
…
3750/3750 [==============================] - 8s 2ms/step - loss: 4.9886e-05 - accuracy: 1.0000 - val_loss: 0.1985 - val_accuracy: 0.9837
Epoch 24/25
3750/3750 [==============================] - 8s 2ms/step - loss: 4.7556e-05 - accuracy: 1.0000 - val_loss: 0.1993 - val_accuracy: 0.9837
Epoch 25/25
3750/3750 [==============================] - 8s 2ms/step - loss: 4.5428e-05 - accuracy: 1.0000 - val_loss: 0.2000 - val_accuracy: 0.9837
dense = 512, batch = 32
Model: "sequential_1"
_________________________________________________________________
 Layer (type)                Output Shape              Param #   
=================================================================
 dense_2 (Dense)             (None, 256)               200960    
                                                                 
 dense_3 (Dense)             (None, 10)                2570      
                                                                 
 input_3 (InputLayer)        multiple                  0         
                                                                 
 dense_4 (Dense)             (None, 256)               2816      
                                                                 
 dense_5 (Dense)             (None, 10)                2570      
                                                                 
 input_4 (InputLayer)        multiple                  0         
                                                                 
 dense_6 (Dense)             (None, 256)               2816      
                                                                 
 dense_7 (Dense)             (None, 10)                2570      
                                                                 
 input_5 (InputLayer)        multiple                  0         
                                                                 
 dense_8 (Dense)             (None, 256)               2816      
                                                                 
 dense_9 (Dense)             (None, 10)                2570      
                                                                 
 input_6 (InputLayer)        multiple                  0         
                                                                 
 dense_10 (Dense)            (None, 512)               5632      
                                                                 
 dense_11 (Dense)            (None, 10)                5130      
                                                                 
 input_7 (InputLayer)        multiple                  0         
                                                                 
 dense_12 (Dense)            (None, 512)               5632      
                                                                 
 dense_13 (Dense)            (None, 10)                5130      
                                                                 
=================================================================
Total params: 241212 (942.23 KB)
Trainable params: 241212 (942.23 KB)
Non-trainable params: 0 (0.00 Byte)
_________________________________________________________________
Epoch 1/25
1875/1875 [==============================] - 6s 3ms/step - loss: 0.1193 - accuracy: 0.9936 - val_loss: 0.1294 - val_accuracy: 0.9837
…
1875/1875 [==============================] - 5s 3ms/step - loss: 1.0693e-04 - accuracy: 1.0000 - val_loss: 0.1846 - val_accuracy: 0.9837
Epoch 24/25
1875/1875 [==============================] - 5s 3ms/step - loss: 1.0190e-04 - accuracy: 1.0000 - val_loss: 0.1854 - val_accuracy: 0.9837
Epoch 25/25
1875/1875 [==============================] - 5s 3ms/step - loss: 9.7294e-05 - accuracy: 1.0000 - val_loss: 0.1861 - val_accuracy: 0.9837
dense = 512, batch = 64
Model: "sequential_1"
_________________________________________________________________
 Layer (type)                Output Shape              Param #   
=================================================================
 dense_2 (Dense)             (None, 256)               200960    
                                                                 
 dense_3 (Dense)             (None, 10)                2570      
                                                                 
 input_3 (InputLayer)        multiple                  0         
                                                                 
 dense_4 (Dense)             (None, 256)               2816      
                                                                 
 dense_5 (Dense)             (None, 10)                2570      
                                                                 
 input_4 (InputLayer)        multiple                  0         
                                                                 
 dense_6 (Dense)             (None, 256)               2816      
                                                                 
 dense_7 (Dense)             (None, 10)                2570      
                                                                 
 input_5 (InputLayer)        multiple                  0         
                                                                 
 dense_8 (Dense)             (None, 256)               2816      
                                                                 
 dense_9 (Dense)             (None, 10)                2570      
                                                                 
 input_6 (InputLayer)        multiple                  0         
                                                                 
 dense_10 (Dense)            (None, 512)               5632      
                                                                 
 dense_11 (Dense)            (None, 10)                5130      
                                                                 
 input_7 (InputLayer)        multiple                  0         
                                                                 
 dense_12 (Dense)            (None, 512)               5632      
                                                                 
 dense_13 (Dense)            (None, 10)                5130      
                                                                 
 input_8 (InputLayer)        multiple                  0         
                                                                 
 dense_14 (Dense)            (None, 512)               5632      
                                                                 
 dense_15 (Dense)            (None, 10)                5130      
                                                                 
=================================================================
Total params: 251974 (984.27 KB)
Trainable params: 251974 (984.27 KB)
Non-trainable params: 0 (0.00 Byte)
_________________________________________________________________
Epoch 1/25
938/938 [==============================] - 4s 4ms/step - loss: 0.2232 - accuracy: 0.9908 - val_loss: 0.1215 - val_accuracy: 0.9837
…
938/938 [==============================] - 3s 4ms/step - loss: 2.3153e-04 - accuracy: 1.0000 - val_loss: 0.1733 - val_accuracy: 0.9837
Epoch 24/25
938/938 [==============================] - 3s 4ms/step - loss: 2.2051e-04 - accuracy: 1.0000 - val_loss: 0.1741 - val_accuracy: 0.9837
Epoch 25/25
938/938 [==============================] - 3s 4ms/step - loss: 2.1046e-04 - accuracy: 1.0000 - val_loss: 0.1748 - val_accuracy: 0.9837
dense = 512, batch = 128
Model: "sequential_1"
_________________________________________________________________
 Layer (type)                Output Shape              Param #   
=================================================================
 dense_2 (Dense)             (None, 256)               200960    
                                                                 
 dense_3 (Dense)             (None, 10)                2570      
                                                                 
 input_3 (InputLayer)        multiple                  0         
                                                                 
 dense_4 (Dense)             (None, 256)               2816      
                                                                 
 dense_5 (Dense)             (None, 10)                2570      
                                                                 
 input_4 (InputLayer)        multiple                  0         
                                                                 
 dense_6 (Dense)             (None, 256)               2816      
                                                                 
 dense_7 (Dense)             (None, 10)                2570      
                                                                 
 input_5 (InputLayer)        multiple                  0         
                                                                 
 dense_8 (Dense)             (None, 256)               2816      
                                                                 
 dense_9 (Dense)             (None, 10)                2570      
                                                                 
 input_6 (InputLayer)        multiple                  0         
                                                                 
 dense_10 (Dense)            (None, 512)               5632      
                                                                 
 dense_11 (Dense)            (None, 10)                5130      
                                                                 
 input_7 (InputLayer)        multiple                  0         
                                                                 
 dense_12 (Dense)            (None, 512)               5632      
                                                                 
 dense_13 (Dense)            (None, 10)                5130      
                                                                 
 input_8 (InputLayer)        multiple                  0         
                                                                 
 dense_14 (Dense)            (None, 512)               5632      
                                                                 
 dense_15 (Dense)            (None, 10)                5130      
                                                                 
 input_9 (InputLayer)        multiple                  0         
                                                                 
 dense_16 (Dense)            (None, 512)               5632      
                                                                 
 dense_17 (Dense)            (None, 10)                5130      
                                                                 
=================================================================
Total params: 262736 (1.00 MB)
Trainable params: 262736 (1.00 MB)
Non-trainable params: 0 (0.00 Byte)
_________________________________________________________________
Epoch 1/25
469/469 [==============================] - 3s 5ms/step - loss: 0.4359 - accuracy: 0.9811 - val_loss: 0.1214 - val_accuracy: 0.9837
…
469/469 [==============================] - 2s 4ms/step - loss: 5.0480e-04 - accuracy: 1.0000 - val_loss: 0.1613 - val_accuracy: 0.9837
Epoch 24/25
469/469 [==============================] - 2s 4ms/step - loss: 4.8044e-04 - accuracy: 1.0000 - val_loss: 0.1620 - val_accuracy: 0.9837
Epoch 25/25
469/469 [==============================] - 2s 4ms/step - loss: 4.5823e-04 - accuracy: 1.0000 - val_loss: 0.1628 - val_accuracy: 0.9837
dense = 1024, batch = 16
Model: "sequential_1"
_________________________________________________________________
 Layer (type)                Output Shape              Param #   
=================================================================
 dense_2 (Dense)             (None, 256)               200960    
                                                                 
 dense_3 (Dense)             (None, 10)                2570      
                                                                 
 input_3 (InputLayer)        multiple                  0         
                                                                 
 dense_4 (Dense)             (None, 256)               2816      
                                                                 
 dense_5 (Dense)             (None, 10)                2570      
                                                                 
 input_4 (InputLayer)        multiple                  0         
                                                                 
 dense_6 (Dense)             (None, 256)               2816      
                                                                 
 dense_7 (Dense)             (None, 10)                2570      
                                                                 
 input_5 (InputLayer)        multiple                  0         
                                                                 
 dense_8 (Dense)             (None, 256)               2816      
                                                                 
 dense_9 (Dense)             (None, 10)                2570      
                                                                 
 input_6 (InputLayer)        multiple                  0         
                                                                 
 dense_10 (Dense)            (None, 512)               5632      
                                                                 
 dense_11 (Dense)            (None, 10)                5130      
                                                                 
 input_7 (InputLayer)        multiple                  0         
                                                                 
 dense_12 (Dense)            (None, 512)               5632      
                                                                 
 dense_13 (Dense)            (None, 10)                5130      
                                                                 
 input_8 (InputLayer)        multiple                  0         
                                                                 
 dense_14 (Dense)            (None, 512)               5632      
                                                                 
 dense_15 (Dense)            (None, 10)                5130      
                                                                 
 input_9 (InputLayer)        multiple                  0         
                                                                 
 dense_16 (Dense)            (None, 512)               5632      
                                                                 
 dense_17 (Dense)            (None, 10)                5130      
                                                                 
 input_10 (InputLayer)       multiple                  0         
                                                                 
 dense_18 (Dense)            (None, 1024)              11264     
                                                                 
 dense_19 (Dense)            (None, 10)                10250     
                                                                 
=================================================================
Total params: 284250 (1.08 MB)
Trainable params: 284250 (1.08 MB)
Non-trainable params: 0 (0.00 Byte)
_________________________________________________________________
Epoch 1/25
3750/3750 [==============================] - 12s 3ms/step - loss: 0.0594 - accuracy: 0.9970 - val_loss: 0.1420 - val_accuracy: 0.9837
…
3750/3750 [==============================] - 12s 3ms/step - loss: 4.9702e-05 - accuracy: 1.0000 - val_loss: 0.1980 - val_accuracy: 0.9837
Epoch 24/25
3750/3750 [==============================] - 11s 3ms/step - loss: 4.7382e-05 - accuracy: 1.0000 - val_loss: 0.1988 - val_accuracy: 0.9837
Epoch 25/25
3750/3750 [==============================] - 11s 3ms/step - loss: 4.5264e-05 - accuracy: 1.0000 - val_loss: 0.1995 - val_accuracy: 0.9837
dense = 1024, batch = 32
Model: "sequential_1"
_________________________________________________________________
 Layer (type)                Output Shape              Param #   
=================================================================
 dense_2 (Dense)             (None, 256)               200960    
                                                                 
 dense_3 (Dense)             (None, 10)                2570      
                                                                 
 input_3 (InputLayer)        multiple                  0         
                                                                 
 dense_4 (Dense)             (None, 256)               2816      
                                                                 
 dense_5 (Dense)             (None, 10)                2570      
                                                                 
 input_4 (InputLayer)        multiple                  0         
                                                                 
 dense_6 (Dense)             (None, 256)               2816      
                                                                 
 dense_7 (Dense)             (None, 10)                2570      
                                                                 
 input_5 (InputLayer)        multiple                  0         
                                                                 
 dense_8 (Dense)             (None, 256)               2816      
                                                                 
 dense_9 (Dense)             (None, 10)                2570      
                                                                 
 input_6 (InputLayer)        multiple                  0         
                                                                 
 dense_10 (Dense)            (None, 512)               5632      
                                                                 
 dense_11 (Dense)            (None, 10)                5130      
                                                                 
 input_7 (InputLayer)        multiple                  0         
                                                                 
 dense_12 (Dense)            (None, 512)               5632      
                                                                 
 dense_13 (Dense)            (None, 10)                5130      
                                                                 
 input_8 (InputLayer)        multiple                  0         
                                                                 
 dense_14 (Dense)            (None, 512)               5632      
                                                                 
 dense_15 (Dense)            (None, 10)                5130      
                                                                 
 input_9 (InputLayer)        multiple                  0         
                                                                 
 dense_16 (Dense)            (None, 512)               5632      
                                                                 
 dense_17 (Dense)            (None, 10)                5130      
                                                                 
 input_10 (InputLayer)       multiple                  0         
                                                                 
 dense_18 (Dense)            (None, 1024)              11264     
                                                                 
 dense_19 (Dense)            (None, 10)                10250     
                                                                 
 input_11 (InputLayer)       multiple                  0         
                                                                 
 dense_20 (Dense)            (None, 1024)              11264     
                                                                 
 dense_21 (Dense)            (None, 10)                10250     
                                                                 
=================================================================
Total params: 305764 (1.17 MB)
Trainable params: 305764 (1.17 MB)
Non-trainable params: 0 (0.00 Byte)
_________________________________________________________________
Epoch 1/25
1875/1875 [==============================] - 8s 4ms/step - loss: 0.1175 - accuracy: 0.9950 - val_loss: 0.1304 - val_accuracy: 0.9837
…
1875/1875 [==============================] - 7s 4ms/step - loss: 1.0674e-04 - accuracy: 1.0000 - val_loss: 0.1855 - val_accuracy: 0.9837
Epoch 24/25
1875/1875 [==============================] - 7s 4ms/step - loss: 1.0172e-04 - accuracy: 1.0000 - val_loss: 0.1863 - val_accuracy: 0.9837
Epoch 25/25
1875/1875 [==============================] - 7s 4ms/step - loss: 9.7129e-05 - accuracy: 1.0000 - val_loss: 0.1870 - val_accuracy: 0.9837
dense = 1024, batch = 64
Model: "sequential_1"
_________________________________________________________________
 Layer (type)                Output Shape              Param #   
=================================================================
 dense_2 (Dense)             (None, 256)               200960    
                                                                 
 dense_3 (Dense)             (None, 10)                2570      
                                                                 
 input_3 (InputLayer)        multiple                  0         
                                                                 
 dense_4 (Dense)             (None, 256)               2816      
                                                                 
 dense_5 (Dense)             (None, 10)                2570      
                                                                 
 input_4 (InputLayer)        multiple                  0         
                                                                 
 dense_6 (Dense)             (None, 256)               2816      
                                                                 
 dense_7 (Dense)             (None, 10)                2570      
                                                                 
 input_5 (InputLayer)        multiple                  0         
                                                                 
 dense_8 (Dense)             (None, 256)               2816      
                                                                 
 dense_9 (Dense)             (None, 10)                2570      
                                                                 
 input_6 (InputLayer)        multiple                  0         
                                                                 
 dense_10 (Dense)            (None, 512)               5632      
                                                                 
 dense_11 (Dense)            (None, 10)                5130      
                                                                 
 input_7 (InputLayer)        multiple                  0         
                                                                 
 dense_12 (Dense)            (None, 512)               5632      
                                                                 
 dense_13 (Dense)            (None, 10)                5130      
                                                                 
 input_8 (InputLayer)        multiple                  0         
                                                                 
 dense_14 (Dense)            (None, 512)               5632      
                                                                 
 dense_15 (Dense)            (None, 10)                5130      
                                                                 
 input_9 (InputLayer)        multiple                  0         
                                                                 
 dense_16 (Dense)            (None, 512)               5632      
                                                                 
 dense_17 (Dense)            (None, 10)                5130      
                                                                 
 input_10 (InputLayer)       multiple                  0         
                                                                 
 dense_18 (Dense)            (None, 1024)              11264     
                                                                 
 dense_19 (Dense)            (None, 10)                10250     
                                                                 
 input_11 (InputLayer)       multiple                  0         
                                                                 
 dense_20 (Dense)            (None, 1024)              11264     
                                                                 
 dense_21 (Dense)            (None, 10)                10250     
                                                                 
 input_12 (InputLayer)       multiple                  0         
                                                                 
 dense_22 (Dense)            (None, 1024)              11264     
                                                                 
 dense_23 (Dense)            (None, 10)                10250     
                                                                 
=================================================================
Total params: 327278 (1.25 MB)
Trainable params: 327278 (1.25 MB)
Non-trainable params: 0 (0.00 Byte)
_________________________________________________________________
Epoch 1/25
938/938 [==============================] - 6s 5ms/step - loss: 0.2267 - accuracy: 0.9891 - val_loss: 0.1208 - val_accuracy: 0.9837
…
938/938 [==============================] - 5s 5ms/step - loss: 2.3077e-04 - accuracy: 1.0000 - val_loss: 0.1725 - val_accuracy: 0.9837
Epoch 24/25
938/938 [==============================] - 5s 5ms/step - loss: 2.1979e-04 - accuracy: 1.0000 - val_loss: 0.1733 - val_accuracy: 0.9837
Epoch 25/25
938/938 [==============================] - 5s 5ms/step - loss: 2.0977e-04 - accuracy: 1.0000 - val_loss: 0.1740 - val_accuracy: 0.9837
dense = 1024, batch = 128
Model: "sequential_1"
_________________________________________________________________
 Layer (type)                Output Shape              Param #   
=================================================================
 dense_2 (Dense)             (None, 256)               200960    
                                                                 
 dense_3 (Dense)             (None, 10)                2570      
                                                                 
 input_3 (InputLayer)        multiple                  0         
                                                                 
 dense_4 (Dense)             (None, 256)               2816      
                                                                 
 dense_5 (Dense)             (None, 10)                2570      
                                                                 
 input_4 (InputLayer)        multiple                  0         
                                                                 
 dense_6 (Dense)             (None, 256)               2816      
                                                                 
 dense_7 (Dense)             (None, 10)                2570      
                                                                 
 input_5 (InputLayer)        multiple                  0         
                                                                 
 dense_8 (Dense)             (None, 256)               2816      
                                                                 
 dense_9 (Dense)             (None, 10)                2570      
                                                                 
 input_6 (InputLayer)        multiple                  0         
                                                                 
 dense_10 (Dense)            (None, 512)               5632      
                                                                 
 dense_11 (Dense)            (None, 10)                5130      
                                                                 
 input_7 (InputLayer)        multiple                  0         
                                                                 
 dense_12 (Dense)            (None, 512)               5632      
                                                                 
 dense_13 (Dense)            (None, 10)                5130      
                                                                 
 input_8 (InputLayer)        multiple                  0         
                                                                 
 dense_14 (Dense)            (None, 512)               5632      
                                                                 
 dense_15 (Dense)            (None, 10)                5130      
                                                                 
 input_9 (InputLayer)        multiple                  0         
                                                                 
 dense_16 (Dense)            (None, 512)               5632      
                                                                 
 dense_17 (Dense)            (None, 10)                5130      
                                                                 
 input_10 (InputLayer)       multiple                  0         
                                                                 
 dense_18 (Dense)            (None, 1024)              11264     
                                                                 
 dense_19 (Dense)            (None, 10)                10250     
                                                                 
 input_11 (InputLayer)       multiple                  0         
                                                                 
 dense_20 (Dense)            (None, 1024)              11264     
                                                                 
 dense_21 (Dense)            (None, 10)                10250     
                                                                 
 input_12 (InputLayer)       multiple                  0         
                                                                 
 dense_22 (Dense)            (None, 1024)              11264     
                                                                 
 dense_23 (Dense)            (None, 10)                10250     
                                                                 
 input_13 (InputLayer)       multiple                  0         
                                                                 
 dense_24 (Dense)            (None, 1024)              11264     
                                                                 
 dense_25 (Dense)            (None, 10)                10250     
                                                                 
=================================================================
Total params: 348792 (1.33 MB)
Trainable params: 348792 (1.33 MB)
Non-trainable params: 0 (0.00 Byte)
_________________________________________________________________
Epoch 1/25
469/469 [==============================] - 4s 7ms/step - loss: 0.4386 - accuracy: 0.9821 - val_loss: 0.1212 - val_accuracy: 0.9837
…
